### 
#base model
###

__________________________________________________________________________________________________
Layer (type)                    Output Shape         Param #     Connected to                     
==================================================================================================
input_1 (InputLayer)            [(None, 224, 224, 3) 0                                            
__________________________________________________________________________________________________
conv2d (Conv2D)                 (None, 224, 224, 64) 1792        input_1[0][0]                    
__________________________________________________________________________________________________
batch_normalization (BatchNorma (None, 224, 224, 64) 256         conv2d[0][0]                     
__________________________________________________________________________________________________
activation (Activation)         (None, 224, 224, 64) 0           batch_normalization[0][0]        
__________________________________________________________________________________________________
conv2d_1 (Conv2D)               (None, 224, 224, 64) 36928       activation[0][0]                 
__________________________________________________________________________________________________
batch_normalization_1 (BatchNor (None, 224, 224, 64) 256         conv2d_1[0][0]                   
__________________________________________________________________________________________________
activation_1 (Activation)       (None, 224, 224, 64) 0           batch_normalization_1[0][0]      
__________________________________________________________________________________________________
max_pooling2d (MaxPooling2D)    (None, 112, 112, 64) 0           activation_1[0][0]               
__________________________________________________________________________________________________
dropout (Dropout)               (None, 112, 112, 64) 0           max_pooling2d[0][0]              
__________________________________________________________________________________________________
conv2d_2 (Conv2D)               (None, 112, 112, 128 73856       dropout[0][0]                    
__________________________________________________________________________________________________
batch_normalization_2 (BatchNor (None, 112, 112, 128 512         conv2d_2[0][0]                   
…
conv2d_3 (Conv2D)               (None, 112, 112, 128 147584      activation_2[0][0]               
__________________________________________________________________________________________________
batch_normalization_3 (BatchNor (None, 112, 112, 128 512         conv2d_3[0][0]                   
__________________________________________________________________________________________________
activation_3 (Activation)       (None, 112, 112, 128 0           batch_normalization_3[0][0]      
__________________________________________________________________________________________________
max_pooling2d_1 (MaxPooling2D)  (None, 56, 56, 128)  0           activation_3[0][0]               
__________________________________________________________________________________________________
dropout_1 (Dropout)             (None, 56, 56, 128)  0           max_pooling2d_1[0][0]            
__________________________________________________________________________________________________
conv2d_4 (Conv2D)               (None, 56, 56, 256)  295168      dropout_1[0][0]                  
__________________________________________________________________________________________________
batch_normalization_4 (BatchNor (None, 56, 56, 256)  1024        conv2d_4[0][0]                   
__________________________________________________________________________________________________
activation_4 (Activation)       (None, 56, 56, 256)  0           batch_normalization_4[0][0]      
__________________________________________________________________________________________________
conv2d_5 (Conv2D)               (None, 56, 56, 256)  590080      activation_4[0][0]               
__________________________________________________________________________________________________
batch_normalization_5 (BatchNor (None, 56, 56, 256)  1024        conv2d_5[0][0]                   
__________________________________________________________________________________________________
activation_5 (Activation)       (None, 56, 56, 256)  0           batch_normalization_5[0][0]      
__________________________________________________________________________________________________
max_pooling2d_2 (MaxPooling2D)  (None, 28, 28, 256)  0           activation_5[0][0]               
__________________________________________________________________________________________________
dropout_2 (Dropout)             (None, 28, 28, 256)  0           max_pooling2d_2[0][0]            
__________________________________________________________________________________________________
conv2d_6 (Conv2D)               (None, 28, 28, 512)  1180160     dropout_2[0][0]                  
__________________________________________________________________________________________________
batch_normalization_6 (BatchNor (None, 28, 28, 512)  2048        conv2d_6[0][0]                   
__________________________________________________________________________________________________
activation_6 (Activation)       (None, 28, 28, 512)  0           batch_normalization_6[0][0]      
__________________________________________________________________________________________________
conv2d_7 (Conv2D)               (None, 28, 28, 512)  2359808     activation_6[0][0]               
__________________________________________________________________________________________________
batch_normalization_7 (BatchNor (None, 28, 28, 512)  2048        conv2d_7[0][0]                   
__________________________________________________________________________________________________
activation_7 (Activation)       (None, 28, 28, 512)  0           batch_normalization_7[0][0]      
__________________________________________________________________________________________________
max_pooling2d_3 (MaxPooling2D)  (None, 14, 14, 512)  0           activation_7[0][0]               
__________________________________________________________________________________________________
dropout_3 (Dropout)             (None, 14, 14, 512)  0           max_pooling2d_3[0][0]            
__________________________________________________________________________________________________
conv2d_8 (Conv2D)               (None, 14, 14, 1024) 4719616     dropout_3[0][0]                  
__________________________________________________________________________________________________
batch_normalization_8 (BatchNor (None, 14, 14, 1024) 4096        conv2d_8[0][0]                   
__________________________________________________________________________________________________
activation_8 (Activation)       (None, 14, 14, 1024) 0           batch_normalization_8[0][0]      
__________________________________________________________________________________________________
conv2d_9 (Conv2D)               (None, 14, 14, 1024) 9438208     activation_8[0][0]               
__________________________________________________________________________________________________
batch_normalization_9 (BatchNor (None, 14, 14, 1024) 4096        conv2d_9[0][0]                   
__________________________________________________________________________________________________
activation_9 (Activation)       (None, 14, 14, 1024) 0           batch_normalization_9[0][0]      
__________________________________________________________________________________________________
dropout_4 (Dropout)             (None, 14, 14, 1024) 0           activation_9[0][0]               
__________________________________________________________________________________________________
up_sampling2d (UpSampling2D)    (None, 28, 28, 1024) 0           dropout_4[0][0]                  
__________________________________________________________________________________________________
conv2d_10 (Conv2D)              (None, 28, 28, 512)  2097664     up_sampling2d[0][0]              
__________________________________________________________________________________________________
concatenate (Concatenate)       (None, 28, 28, 1024) 0           conv2d_10[0][0]                  
                                                                 activation_7[0][0]               
__________________________________________________________________________________________________
dropout_5 (Dropout)             (None, 28, 28, 1024) 0           concatenate[0][0]                
__________________________________________________________________________________________________
conv2d_11 (Conv2D)              (None, 28, 28, 512)  4719104     dropout_5[0][0]                  
__________________________________________________________________________________________________
batch_normalization_10 (BatchNo (None, 28, 28, 512)  2048        conv2d_11[0][0]                  
__________________________________________________________________________________________________
activation_10 (Activation)      (None, 28, 28, 512)  0           batch_normalization_10[0][0]     
__________________________________________________________________________________________________
conv2d_12 (Conv2D)              (None, 28, 28, 512)  2359808     activation_10[0][0]              
__________________________________________________________________________________________________
batch_normalization_11 (BatchNo (None, 28, 28, 512)  2048        conv2d_12[0][0]                  
__________________________________________________________________________________________________
activation_11 (Activation)      (None, 28, 28, 512)  0           batch_normalization_11[0][0]     
__________________________________________________________________________________________________
up_sampling2d_1 (UpSampling2D)  (None, 56, 56, 512)  0           activation_11[0][0]              
__________________________________________________________________________________________________
conv2d_13 (Conv2D)              (None, 56, 56, 256)  524544      up_sampling2d_1[0][0]            
__________________________________________________________________________________________________
concatenate_1 (Concatenate)     (None, 56, 56, 512)  0           conv2d_13[0][0]                  
                                                                 activation_5[0][0]               
__________________________________________________________________________________________________
dropout_6 (Dropout)             (None, 56, 56, 512)  0           concatenate_1[0][0]              
__________________________________________________________________________________________________
conv2d_14 (Conv2D)              (None, 56, 56, 256)  1179904     dropout_6[0][0]                  
__________________________________________________________________________________________________
batch_normalization_12 (BatchNo (None, 56, 56, 256)  1024        conv2d_14[0][0]                  
__________________________________________________________________________________________________
activation_12 (Activation)      (None, 56, 56, 256)  0           batch_normalization_12[0][0]     
__________________________________________________________________________________________________
conv2d_15 (Conv2D)              (None, 56, 56, 256)  590080      activation_12[0][0]              
__________________________________________________________________________________________________
batch_normalization_13 (BatchNo (None, 56, 56, 256)  1024        conv2d_15[0][0]                  
__________________________________________________________________________________________________
activation_13 (Activation)      (None, 56, 56, 256)  0           batch_normalization_13[0][0]     
__________________________________________________________________________________________________
up_sampling2d_2 (UpSampling2D)  (None, 112, 112, 256 0           activation_13[0][0]              
__________________________________________________________________________________________________
conv2d_16 (Conv2D)              (None, 112, 112, 128 131200      up_sampling2d_2[0][0]            
…
batch_normalization_15 (BatchNo (None, 112, 112, 128 512         conv2d_18[0][0]                  
__________________________________________________________________________________________________
activation_15 (Activation)      (None, 112, 112, 128 0           batch_normalization_15[0][0]     
__________________________________________________________________________________________________
up_sampling2d_3 (UpSampling2D)  (None, 224, 224, 128 0           activation_15[0][0]              
__________________________________________________________________________________________________
conv2d_19 (Conv2D)              (None, 224, 224, 64) 32832       up_sampling2d_3[0][0]            
__________________________________________________________________________________________________
concatenate_3 (Concatenate)     (None, 224, 224, 128 0           conv2d_19[0][0]                  
                                                                 activation_1[0][0]               
__________________________________________________________________________________________________
dropout_8 (Dropout)             (None, 224, 224, 128 0           concatenate_3[0][0]              
__________________________________________________________________________________________________
conv2d_20 (Conv2D)              (None, 224, 224, 64) 73792       dropout_8[0][0]                  
__________________________________________________________________________________________________
batch_normalization_16 (BatchNo (None, 224, 224, 64) 256         conv2d_20[0][0]                  
__________________________________________________________________________________________________
activation_16 (Activation)      (None, 224, 224, 64) 0           batch_normalization_16[0][0]     
__________________________________________________________________________________________________
conv2d_21 (Conv2D)              (None, 224, 224, 64) 36928       activation_16[0][0]              
__________________________________________________________________________________________________
batch_normalization_17 (BatchNo (None, 224, 224, 64) 256         conv2d_21[0][0]                  
__________________________________________________________________________________________________
activation_17 (Activation)      (None, 224, 224, 64) 0           batch_normalization_17[0][0]     
__________________________________________________________________________________________________
conv2d_22 (Conv2D)              (None, 224, 224, 11) 715         activation_17[0][0]              
==================================================================================================
Total params: 31,055,947
Trainable params: 31,044,171
Non-trainable params: 11,776



